dense_bias.npy (npy, 488 bytes, 1 tensors)

array f4 [90]
0	0x3d4e8977	0.050424065
1	0x3ca0e2d8	0.019639418
2	0xbce37256	-0.02776448
3	0x3d2b8df9	0.041883443
4	0xbc793466	-0.015210247
5	0x3d3d3230	0.04619044
6	0x3c9ee1ab	0.019394716
7	0xbd9c42b2	-0.076299086
8	0x3da7d26b	0.08194431
9	0x3cdd9e6c	0.02705308
10	0x3d2b93a3	0.041888844
11	0xba8a578f	-0.0010554659
12	0xbd5cc0a0	-0.05389464
13	0xbd1335b5	-0.03593989
14	0xbd493d9f	-0.049131032
15	0x3c6fb569	0.014630654
16	0xbd16e00c	-0.03683476
17	0x3cb7fa66	0.022458266
18	0x3ea9412f	0.33057544
19	0xbc723b46	-0.01478464
20	0xbda36576	-0.079783365
21	0x3d2e1feb	0.042510908
22	0x3db5126a	0.08841403
23	0xbc61950a	-0.013768444
24	0x3cbd6bfb	0.023122778
25	0x3c335868	0.010946371
26	0x3ccefcfd	0.025267119
27	0x3be9c654	0.0071342383
28	0x3cf9c0e2	0.030487482
29	0x3d365c8a	0.044521846
30	0xbca8c6a1	-0.020602526
31	0xbba70935	-0.005097533
32	0xbc1059fe	-0.008810518
33	0x3c38b9c6	0.011274761
34	0xbc8ceafa	-0.01720189
35	0xbd75b13f	-0.05998349
36	0xbca32899	-0.01991682
37	0xbb89a1b6	-0.0042001856
38	0x3d178b50	0.036998093
39	0xbc9386e3	-0.018008655
40	0xbd18d462	-0.03731192
41	0x3d3c350a	0.04594902
42	0xbd7b1645	-0.061300535
43	0xbce2a1de	-0.027665075
44	0x3ca1772b	0.019710144
45	0xbce797be	-0.028270599
46	0xbd6fad7a	-0.05851505
47	0x3d3a4778	0.045478314
48	0x3c9732df	0.018456874
49	0x3b09abc0	0.0021006912
50	0xbcf389f3	-0.029728865
51	0xbc763bb6	-0.015028885
52	0xbceff0de	-0.02928966
53	0xbdf3e820	-0.11909509
54	0xbc21bd46	-0.009871786
55	0xbd1fa5ab	-0.038976353
56	0xbd6c75c4	-0.057729498
57	0x3d3c6855	0.045997936
58	0xbc169f96	-0.009193322
59	0xba25a2f8	-0.0006318535
60	0x3d76c5e1	0.060247306
61	0x3cb2acce	0.021810915
62	0xb80293ab	-3.113194e-05
63	0xbd3785ce	-0.04480534
64	0xbd950982	-0.07277204
65	0x3c886e7e	0.01665425
66	0xbc09c8c3	-0.008409682
67	0xbd0e0c32	-0.0346796
68	0xbd74c293	-0.059755873
69	0xbdc13949	-0.094347544
70	0xbd8e7421	-0.069557436
71	0xbcceae53	-0.025229609
72	0xbd468e88	-0.048475772
73	0xbcb9a173	-0.022659993
74	0x3c493f2e	0.01228313
75	0xbd1a7fa1	-0.037719373
76	0x3d899fd8	0.06719941
77	0xbd7224b3	-0.05911703
78	0xbcb499ed	-0.022046054
79	0x3a81eab6	0.0009911868
80	0x3d54e39f	0.05197489
81	0xbcdf738f	-0.027276782
82	0xbc1b67c3	-0.009485188
83	0xbd75f095	-0.06004389
84	0x3c8454a6	0.016153645
85	0x3d381d59	0.044949863
86	0xbd3bde2f	-0.045866188
87	0xbdb5f869	-0.08885271
88	0xbd8e01e8	-0.06933957
89	0x3caf7a5f	0.021420656
