dense_weights.npy (npy, 460928 bytes, 1 tensors)

array f4 [1280, 90]
0	0x3ddae1f5	0.10687629
1	0xbe13f636	-0.14449391
2	0xbd850ead	-0.0649694
3	0x3d9a29c2	0.07527496
4	0x3c9b56c4	0.018962272
5	0x3e04f3e8	0.12983668
6	0xbd8f3244	-0.06992009
7	0xbe42c716	-0.19021258
8	0x3e0e8e58	0.13921487
9	0xbc091414	-0.008366603
10	0xbd58e9ad	-0.052957226
11	0x3c8efb20	0.01745373
12	0x3dc330f5	0.09530822
13	0xbd8eccee	-0.06972681
14	0xbc38d221	-0.011280567
15	0x3c2f87c1	0.010713519
16	0xbcc4e9be	-0.024037238
17	0x3d88a933	0.06672897
18	0x3d91d552	0.07120766
19	0xbcea609a	-0.028610516
20	0xbd5e0af0	-0.05420965
21	0xbea36b8f	-0.31917998
22	0xbe04318b	-0.12909524
23	0xbdda0475	-0.10645381
24	0x3de54eed	0.111966945
25	0xbda0a338	-0.078436315
26	0xbdf71dd3	-0.120662354
27	0x3dd09b44	0.101858646
28	0xbe6e6666	-0.2328125
29	0xbdc573cc	-0.09641227
30	0xbd49ec6f	-0.049297746
31	0xbca3d353	-0.019998228
32	0xbe040bd4	-0.12895137
33	0x3d794702	0.060858734
34	0xbe12e620	-0.14345598
35	0x3c30b963	0.010786387
36	0xbdda953b	-0.10672995
37	0x3c60de40	0.0137248635
38	0xbce022d6	-0.027360361
39	0xbdc3e25b	-0.09564658
40	0x3d1cbd8f	0.038266715
41	0x3db50627	0.08839064
42	0xbdc7bf63	-0.09753301
43	0xbe1328fc	-0.14371103
44	0x3d7d4063	0.061828982
45	0x3df763aa	0.12079556
46	0x3d3de088	0.046356708
47	0xbcbd8f04	-0.023139484
48	0x3cc9d71b	0.024638703
49	0xbdd081b3	-0.10180988
50	0x3c9f6fb7	0.01946245
51	0x3dba0ade	0.09084104
52	0xbda8bf24	-0.08239582
53	0xbe01a466	-0.1266037
54	0x3b562523	0.0032675944
55	0xbd87a64f	-0.06623518
56	0x3b99f79e	0.0046987077
57	0xbdfaa8d0	-0.1223923
58	0x3d9c21e5	0.07623652
59	0xbd9fc15e	-0.07800554
60	0xbdfcea16	-0.12349336
61	0xbd91d578	-0.07120794
62	0xbd9eaa61	-0.07747341
63	0xbddb3896	-0.10704152
64	0xbc2c2291	-0.010506288
65	0xbbec2dc2	-0.007207603
66	0xbdf5dbfc	-0.12004849
67	0x3d36c6fb	0.044623356
68	0x3baadca6	0.0052142916
69	0xbcfd8546	-0.030947339
70	0xbe137810	-0.14401269
71	0xbcb71628	-0.022349432
72	0xbd4369b9	-0.047708247
73	0xbd22fd52	-0.039792366
74	0xbc13865d	-0.009004203
75	0xbd844541	-0.06458522
76	0xbe4787df	-0.19485424
77	0xbe2a76da	-0.16646901
78	0xbc095ac5	-0.008383458
79	0xbe4e463f	-0.20143984
80	0x3b05fbb7	0.0020444223
81	0x3d091a86	0.03347256
82	0x3c9f7668	0.01946564
83	0xbd70c11e	-0.05877792
84	0xbd3ba726	-0.045813702
85	0x3d0b692d	0.03403585
86	0xbde37d9f	-0.11107945
87	0xbdaeee44	-0.08541539
88	0x3d1fd56e	0.0390219
89	0xbd7efbfc	-0.06225203
90	0xbd950748	-0.072767794
91	0x3d020fab	0.031753223
92	0xbda34834	-0.07972756
93	0xbe10c4d7	-0.14137588
94	0xbda4305d	-0.08017037
95	0x3d1e9684	0.03871776
96	0xbe7834d9	-0.2423891
97	0xbd53ec8a	-0.051739253
98	0xbe276b01	-0.16349413
99	0x3dedf298	0.11618537
100	0x3ca4ab44	0.020101197
101	0xbe7a1847	-0.24423324
102	0xbe45cfe6	-0.19317588
103	0x3b9e6f02	0.0048350105
104	0xbcaddfc5	-0.021224866
105	0xbe8ae029	-0.27124146
106	0xbe50f4b5	-0.20405848
107	0x3d31e56b	0.04343168
108	0xbc2567da	-0.010095561
109	0xbc94e006	-0.018173229
110	0xbe89c9a9	-0.26911667
111	0xbd78a792	-0.060706683
112	0xbe1e924e	-0.15485498
113	0xbdae157f	-0.08500194
114	0x3d059888	0.03261617
115	0xbdb6a98c	-0.08919057
116	0x3e41c8d3	0.18924265
117	0xbe505ded	-0.2034833
118	0x3cec4a0e	0.028843906
119	0xbd43ffe2	-0.04785145
120	0xbe24d7ff	-0.16098021
121	0x3dfe0bcc	0.12404594
122	0xbe0b9c2c	-0.13633794
123	0xbe83ba3c	-0.25728023
124	0xbe8c9f07	-0.27465078
125	0xbd86aa37	-0.06575435
126	0xbe395047	-0.1809703
127	0x3cdae541	0.026720645
128	0x3e047939	0.12936868
129	0xbdf2adf3	-0.118495844
130	0x3db43481	0.08799077
131	0x3de7c7f8	0.11317438
132	0xbd2cb012	-0.0421601
133	0xbc308b4c	-0.010775398
134	0x3acb14c3	0.0015493858
135	0x3d9c0e17	0.07619875
136	0x3b952c7a	0.004552421
137	0x3ca12e50	0.019675404
138	0xbe20a0fc	-0.1568641
139	0x3b3c18c9	0.0028701297
140	0xbda8e8b8	-0.082475126
141	0xbd87c6b5	-0.06629697
142	0xbd924ad3	-0.07143178
143	0xbc823da5	-0.015898535
144	0x3d28ebc8	0.041240484
145	0xba975573	-0.0011545852
146	0xbc7d43dc	-0.0154580735
147	0x3da24142	0.07922603
148	0x3ba3b172	0.0049955184
149	0x3d70f5d4	0.05882819
150	0x3db8d785	0.09025482
151	0x3e2557e5	0.1614681
152	0x3caf904e	0.021431115
153	0xbcfc22c5	-0.030778298
154	0xbc18106b	-0.009281258
155	0xbccf75f4	-0.0253248
156	0xbe22b3ff	-0.15888976
157	0xbcaf9398	-0.021432683
158	0xbdcd957c	-0.100382775
159	0x3d9544f9	0.07288546
160	0x3d302ce7	0.043011572
161	0x3d08aad0	0.033366024
162	0xbd89a301	-0.06720544
163	0x3de3a1cd	0.111148454
164	0x3d96a3dc	0.073554724
165	0x3c8e01b8	0.017334804
166	0xbd61dd00	-0.055142403
167	0xbdfa3bc3	-0.1221843
168	0xbd1d7523	-0.03844179
169	0xbdc58b71	-0.09645737
170	0x3dac15f8	0.08402628
171	0xbd7a0045	-0.061035413
172	0x3e51062c	0.2041251
173	0x3da0ff5c	0.07861206
174	0x3da410e8	0.08011037
175	0xbe65a782	-0.2242718
176	0x3d86976e	0.06571852
177	0xbe1f26e4	-0.1554218
178	0x3e08037b	0.13282578
179	0x3deaa0ff	0.11456489
180	0x3e3ab017	0.18231235
181	0xbde1aecb	-0.11019667
182	0x3deb861f	0.11500191
183	0xbdc693ed	-0.09696183
184	0xbc22c5ff	-0.009934901
185	0xbe30bb6b	-0.17258994
186	0x3c7ef06a	0.015560249
187	0xbd979a6a	-0.07402499
188	0xbe058347	-0.1303836
189	0x3dfdf9d0	0.124011636
190	0xbea337cd	-0.3187851
191	0xbe4ad533	-0.19807892
192	0x3e2069f6	0.15665421
193	0x3b52f88f	0.003219161
194	0xbc9c68a7	-0.01909287
195	0x3ce108ad	0.027469957
196	0xbcebe4a8	-0.028795555
197	0x3decd431	0.1156391
198	0xbe090cfa	-0.13383856
199	0xbdc3763e	-0.09544037
200	0xbc809718	-0.015697047
201	0xbc9aac0f	-0.018880872
202	0xbcbad302	-0.022805694
203	0x3dc98cf6	0.09841339
204	0xbcd52d76	-0.026022654
205	0xbd8aaf7e	-0.06771754
206	0xbdc93146	-0.09823851
207	0xbc9ef660	-0.01940459
208	0xbe09cf82	-0.13458064
209	0xbe08024e	-0.13282129
210	0xbdb3b289	-0.08774287
211	0x3e10b397	0.14131008
212	0xbdada6e9	-0.08479101
213	0xbc4b9eef	-0.012428029
214	0x3df4d2bf	0.11954259
215	0x3ce7ca74	0.02829478
216	0x3e6d66c0	0.23183727
217	0xbe8e7ff4	-0.27831995
218	0xbdc301ca	-0.095218256
219	0xbd4c56aa	-0.049887337
220	0x3d370168	0.044679075
221	0xbd39e1f3	-0.045381498
222	0x3c3e06de	0.011598317
223	0xbe3abfd0	-0.18237233
224	0xbe2735c7	-0.16329108
225	0xbb5cfeba	-0.0033721165
226	0x3d6f80a6	0.058472298
227	0x3d38d705	0.045126934
228	0xbe04546e	-0.12922832
229	0xbd8d7007	-0.06906133
230	0xbdec9542	-0.11551906
231	0x3e002414	0.12513763
232	0x3e5d4015	0.21606477
233	0xbd8a9a71	-0.067677386
234	0x3d9741de	0.0738561
235	0x3d192ef0	0.03739828
236	0xbcf05a85	-0.029340038
237	0xbd99f0f4	-0.07516661
238	0xbcf8c61e	-0.030367907
239	0xbde15a72	-0.11003579
240	0xbe815c45	-0.2526571
241	0x3dbe988c	0.0930644
242	0xbd5acae5	-0.05341615
243	0xbe1e595a	-0.15463772
244	0xbe4368b2	-0.19082907
245	0xbdc32e0b	-0.095302664
246	0xbe7d512d	-0.24737997
247	0xbd7fb265	-0.06242599
248	0x3db7d279	0.08975691
249	0xbd6931ab	-0.056932133
250	0x3cb30fcd	0.02185812
251	0x3d614694	0.05499895
252	0x3e106f8e	0.14105055
253	0x3d5adb58	0.05343184
254	0xbe165390	-0.14680314
255	0xbe60fe65	-0.21972044
